…
Namespace(batch_size=256, config_file='./config/config.yaml', dataset='CIFAR10', device=device(type='cuda', index=0), directory='pretrain', epoch_decay_start=10, epoch_num=100, epochs=100, exponent=2, forget_rate=0.9, fp16=False, fp16_opt_level='O2', logistic_batch_size=128, lr=0.001, model_path='9cnn/3', n_epoch=50, n_gpu=8, net='9cnn', noise_rate=0.9, noise_type='symmetric', normalize=True, num_gradual=10, num_iter_per_epoch=400, optimizer='LARS', out_dir='9cnn/3', pretrain=True, projection_dim=64, seed=42, start_epoch=0, temperature=0.5, weight_decay=1e-06, workers=16)
Files already downloaded and verified
Files already downloaded and verified
SimCLR(
  (encoder): CNN(
    (c1): Conv2d(3, 128, kernel_size=(3, 3), stride=(1, 1), padding=(1, 1))
    (c2): Conv2d(128, 128, kernel_size=(3, 3), stride=(1, 1), padding=(1, 1))
    (c3): Conv2d(128, 128, kernel_size=(3, 3), stride=(1, 1), padding=(1, 1))
    (c4): Conv2d(128, 256, kernel_size=(3, 3), stride=(1, 1), padding=(1, 1))
    (c5): Conv2d(256, 256, kernel_size=(3, 3), stride=(1, 1), padding=(1, 1))
    (c6): Conv2d(256, 256, kernel_size=(3, 3), stride=(1, 1), padding=(1, 1))
    (c7): Conv2d(256, 512, kernel_size=(3, 3), stride=(1, 1))
    (c8): Conv2d(512, 256, kernel_size=(3, 3), stride=(1, 1))
    (c9): Conv2d(256, 128, kernel_size=(3, 3), stride=(1, 1))
    (fc): Identity()
    (bn1): BatchNorm2d(128, eps=1e-05, momentum=0.1, affine=True, track_running_stats=True)
    (bn2): BatchNorm2d(128, eps=1e-05, momentum=0.1, affine=True, track_running_stats=True)
    (bn3): BatchNorm2d(128, eps=1e-05, momentum=0.1, affine=True, track_running_stats=True)
    (bn4): BatchNorm2d(256, eps=1e-05, momentum=0.1, affine=True, track_running_stats=True)
    (bn5): BatchNorm2d(256, eps=1e-05, momentum=0.1, affine=True, track_running_stats=True)
    (bn6): BatchNorm2d(256, eps=1e-05, momentum=0.1, affine=True, track_running_stats=True)
    (bn7): BatchNorm2d(512, eps=1e-05, momentum=0.1, affine=True, track_running_stats=True)
    (bn8): BatchNorm2d(256, eps=1e-05, momentum=0.1, affine=True, track_running_stats=True)
    (bn9): BatchNorm2d(128, eps=1e-05, momentum=0.1, affine=True, track_running_stats=True)
  )
  (projector): Sequential(
    (0): Linear(in_features=128, out_features=128, bias=False)
    (1): ReLU()
    (2): Linear(in_features=128, out_features=64, bias=False)
  )
) LARS (
Parameter Group 0
    classic_momentum: True
    eeta: 0.001
    exclude_from_layer_adaptation: None
    exclude_from_weight_decay: ['batch_normalization', 'bias']
    initial_lr: 0.3
    lr: 0.3
    momentum: 0.9
    use_nesterov: False
    weight_decay: 1e-06
)
Using 8's
Step [0/195]	 Loss: 6.2313971519470215
Step [50/195]	 Loss: 6.134754657745361
…
